src/text_based_split/ckpts/model_last.pt (torch, 200187 bytes, 3 tensors)

model.0.weight f4 [128, 384]
-0.04419004 -0.004679179 -0.022366516 0.042704772 -0.02951684 0.00859052 -0.026735844 0.02632428
0.039479624 -0.00043626915 -0.022438914 0.011637068 0.024653919 0.014827037 0.005942203 0.050505616
-0.02148809 0.030136943 -0.025588324 -0.01696086 0.018163232 0.018384315 0.011801338 0.027025595
-0.013156482 -0.048957415 0.030977227 0.03655919 0.046571832 0.0123370215 0.03573756 0.020471897
-0.008655826 0.021686485 -0.02457004 0.018707974 -0.012730463 -0.02021434 -0.00031714453 -0.037023347
-0.009630485 0.0036159817 0.021242624 -0.046625666 -0.003403386 -0.014023254 -0.006331052 -0.01589655
0.040907823 -0.0012639973 -0.011766894 -0.025000244 0.019761091 -0.021083204 0.04549203 0.00430771
-0.0070548765 0.005586776 -0.031865764 -0.0021629252 0.049420293 0.01174635 0.04251687 -0.0055051004
-0.028040623 0.030212358 0.049719054 0.04866814 -0.049711987 -0.01025262 -0.021365095 0.001115119
-0.010687204 0.008645819 -0.015477612 -0.043608572 0.046841912 0.018968811 -0.03396378 -0.04178968
0.016104983 0.029390026 -0.01722916 0.0058626994 0.022256443 0.016891297 0.03962703 0.0019566684
-0.007519421 -0.018827658 0.01048186 -0.04298779 0.015516861 -0.015463711 -0.050342523 0.007673063
0.031695478 -0.020106938 -0.048296653 -0.03651134 -0.023176596 0.0504968 0.03198035 -0.021206228
0.009402639 0.038411725 -0.017846715 0.0038649437 -0.024890423 -0.00054859865 -0.026467586 -0.042970892
0.038393244 0.023799606 0.016572997 -0.00021102007 -0.011962139 0.0030830782 -0.015809137 -0.022861904
-0.02817143 0.036197335 0.005241745 0.02144703 -0.03426059 -0.030728363 0.043540448 0.047364496
-0.010489555 -0.03430204 -0.0063280044 0.005790508 0.041263964 -0.00088735134 -0.027577497 -0.0014031058
-0.012946971 0.043237574 -0.005550111 0.014842976 -0.02911718 -0.009207813 0.008416384 -0.024715325
-0.0106026335 0.009172 -0.00081908976 -0.02519411 0.00052568864 0.04531791 0.043841172 -0.029381942
0.0278599 -0.0479291 -0.039055504 -0.023717396 0.0052937395 0.01606024 0.022423437 0.006370558
-0.04689238 -0.009819691 0.024725787 -0.036042225 -0.032989383 -0.0039790557 -0.025949506 -0.039394893
0.033417188 0.008647236 0.04466783 -0.02125181 -0.038130708 -0.010083278 0.018325597 0.019703835
0.048614424 0.014199355 -0.006487608 -0.030615503 -0.049702358 -0.029328609 -0.028423797 -0.032652672
-0.007135159 0.048454206 0.026189739 -0.03471634 0.043169927 0.01008767 0.021694308 -0.015243998
-0.050219893 0.039491456 0.0018627838 0.025887584 0.029112197 -0.043554895 0.034451988 -0.029074116
0.04177704 -0.033298004 -0.038335957 -0.01711778 -0.035192043 -0.0010049673 0.046439096 -0.034161467
0.048501637 -0.04197221 0.038954213 -0.023323668 0.02715584 0.050937664 0.013604213 -0.0038299218
-0.013975012 0.022020305 0.007061282 -0.030347683 0.032095842 -0.03040494 0.04834238 0.016925411
-0.01731403 -0.029878916 -0.02311707 0.00076172355 -0.038516834 -0.012647724 -0.047575664 0.0032370484
0.02668992 -0.018546777 -0.050429583 -0.010575051 0.027909825 -0.047796924 0.029773954 -0.03547187
-0.038564138 -0.012309884 -0.038740933 0.023216272 -0.031727478 -0.02450981 0.029121403 -0.008014547
0.004973347 0.020571701 -0.036321957 -0.016915003 0.03008608 -0.037390318 -0.024971038 -0.021687306
00000000: 9e00 35bd cc53 99bb fc39 b7bc 33eb 2e3d
00000010: 4dcd f1bc 41bf 0c3c 2105 dbbc 04a6 d73c
00000020: 63b5 213d 0ebb e4b9 d0d1 b7bc 67a9 3e3c
00000030: 04f7 c93c 1aed 723c d0b6 c23b fade 4e3d
00000040: ca07 b0bc c0e1 f63c 9b9e d1bc 80f1 8abc
00000050: 0fcb 943c b49a 963c 665a 413c c864 dd3c
00000060: 498e 57bc 9287 48bd f4c3 fd3c 17bf 153d
00000070: 1bc2 3e3d 3821 4a3c 8c61 123d aeb4 a73c
00000080: 2ad1 0dbc dba7 b13c 1c47 c9bc 7741 993c
00000090: 6f93 50bc 8b98 a5bc 6b46 a6b9 cba5 17bd
000000a0: 2fc9 1dbc 1bfa 6c3b 0305 ae3c 8efa 3ebd
000000b0: 580b 5fbb cac1 65bc b774 cfbb 7b39 82bc
000000c0: f68e 273d b6ac a5ba eec9 40bc 50cd ccbc
000000d0: 03e2 a13c afb6 acbc da55 3a3d b127 8d3b
000000e0: 982c e7bb 4611 b73b ad85 02bd ddbf 0dbb
000000f0: ef6c 4a3d c373 403c 2b26 2e3d 2164 b4bb
00000100: 73b5 e5bc e87f f73c 35a6 4b3d 3e58 473d
00000110: cc9e 4bbd 9bfa 27bc da05 afbc 2f29 923a
00000120: 6219 2fbc 31a7 0d3c cf95 7dbc e79e 32bd
00000130: 4edd 3f3d 7b64 9b3c 9b1d 0bbd a82b 2bbd
00000140: 99ee 833c 5ac3 f03c 2b24 8dbc e31b c03b
00000150: 2553 b63c 9e5f 8a3c f44f 223d 733b 003b
00000160: 7a65 f6bb 763c 9abc 1bbc 2b3c f713 30bd
00000170: 6f3a 7e3c 815b 7dbc f633 4ebd 516e fb3b
00000180: 1ed3 013d 4eb7 a4bc b6d2 45bd ea8c 15bd
00000190: d8dc bdbc bcd5 4e3d d4fd 023d afb8 adbc
000001a0: 870d 1a3c 9d55 1d3d 4633 92bc ff4a 7d3b
000001b0: 00e7 cbbc d5cf 0fba 8dd2 d8bc 3f02 30bd
000001c0: 3c42 1d3d 64f7 c23c 18c4 873c 4545 5db9
000001d0: d9fc 43bc 780d 4a3b 2a82 81bc e348 bbbc
000001e0: c5c7 e6bc a843 143d f2c2 ab3b afb1 af3c
000001f0: d554 0cbd 0cba fbbc 7857 323d 4601 423d
00000200: 62dc 2bbc 4c80 0cbd 265b cfbb 4dbe bd3b
00000210: 6704 293d 249d 68ba 34ea e1bc 6be8 b7ba
00000220: 881f 54bc e219 313d b5dd b5bb f42f 733c
00000230: 2787 eebc 5edc 16bc e0e4 093c cb77 cabc
00000240: abb6 2dbc 2846 163c 2fb8 56ba e163 cebc
00000250: 5ece 093a 469f 393d cd92 333d 66b2 f0bc
00000260: 723a e43c 4e51 44bd aaf8 1fbd fc4a c2bc
00000270: 1b77 ad3b c490 833c 5bb1 b73c 1dc0 d03b
00000280: 3912 40bd c5e2 20bc bc8d ca3c 03a1 13bd
00000290: e01f 07bd bd62 82bb 0f94 d4bc 8a5c 21bd
000002a0: 76e0 083d 23ad 0d3c 9df5 363d 4718 aebc
000002b0: f22e 1cbd 5534 25bc 901f 963c f069 a13c
000002c0: eb1f 473d 69a4 683c 0096 d4bb 5dcd fabc
000002d0: b394 4bbd 8d42 f0bc 06d9 e8bc cfbe 05bd
000002e0: 0dce e9bb eb77 463d dd8b d63c b932 0ebd
000002f0: f3d2 303d c146 253c 43b8 b13c f6c1 79bc
00000300: 60b3 4dbd cbc1 213d a728 f43a 3312 d43c
00000310: b47c ee3c 9e66 32bd 871d 0d3d d72c eebc
00000320: 671e 2b3d 7d63 08bd 2a06 1dbd 963a 8cbc
00000330: 8825 10bd 1bb9 83ba ec36 3e3d e5ec 0bbd
00000340: a7a9 463d 0deb 2bbd 748e 1f3d 4711 bfbc
00000350: ed75 de3c 03a4 503d 34e4 5e3c 6dff 7abb
00000360: 73f7 64bc ed63 b43c 5462 e73b b49b f8bc
00000370: ee76 033d c813 f9bc a902 463d 29a7 8a3c
00000380: 27d6 8dbc a1c4 f4bc 0260 bdbc 67ae 473a
00000390: d4c3 1dbd 6638 4fbc b3de 42bd a924 543b
000003a0: d2a4 da3c 69ef 97bc 408f 4ebd fb42 2dbc
000003b0: 25a3 e43c b5c6 43bd 82e8 f33c f44a 11bd
000003c0: 6ef5 1dbd 65af 49bc d0ae 1ebd 0d30 be3c
000003d0: acf4 01bd ccc8 c8bc 0290 ee3c 724f 03bc
000003e0: 75f7 a23b fc85 a83c 55c6 14bd 5591 8abc
000003f0: 1577 f63c 9726 19bd 1090 ccbc 94a9 b1bc

model.0.bias f4 [128]
-0.04250886 0.04037653 -0.0437975 -0.014475274 -0.01864033 -0.030074637 -0.06045348 -0.0773294
-0.0069938004 -0.017732145 -0.08215814 -0.016517377 0.04433831 0.027694248 0.0027643275 -0.04764008
0.00027370593 0.02177457 -0.038300272 -0.011364889 -0.03746982 -0.023838192 0.033282593 0.02292104
-0.015534406 -0.04049183 -0.023282807 -0.07955076 -0.03427966 -0.11727774 -0.109692015 -0.026392872
-0.03564462 -0.0466957 -0.022016028 -0.044080798 -0.03546491 -0.081594974 -0.065078735 -0.100074574
-0.017584318 -0.097501904 -0.07946187 -0.036165018 -0.036581494 -0.12589197 -0.09524185 -0.019533599
-0.025389986 -0.040782 -0.08192161 -0.033260245 -0.098624006 0.102376826 -0.03825052 -0.02746345
-0.020776121 -0.011867302 -0.02901279 0.023424786 -0.033054926 -0.019711712 0.012030512 -0.055034216
0.018284641 -0.039902728 -0.03953618 -0.02408122 -0.015323047 -0.036986906 -0.012432067 -0.00526316
-0.06357497 -0.05002216 -0.007029442 -0.07332741 -0.03544962 -0.044611964 0.09937813 0.042884726
-0.0661426 -0.0014877731 -0.032329984 -0.0113716135 -0.065922745 -0.0070044347 -0.04144619 0.0076671867
-0.024139836 -0.027211796 -0.014974219 -0.0056406697 -0.026430441 0.038121548 -0.06769665 -0.028258039
-0.029993722 -0.04381242 -0.0983332 -0.053057425 -0.08028684 -0.050308198 0.038351845 -0.025049374
-0.009169773 -0.01940453 -0.027390495 -0.043108005 -0.041891657 -0.044717938 -0.045999397 -0.026749397
-0.04486375 0.011524175 -0.021511005 -0.030804357 -0.08037137 -0.06764868 -0.007503148 0.009115428
-0.06796271 0.005801415 -0.042804442 -0.043652203 -0.042012077 -0.08135188 -0.018674709 -0.009637974
00000000: c51d 2ebd dc61 253d 0265 33bd b329 6dbc
00000010: 9bb3 98bc 165f f6bc 119e 77bd e05e 9ebd
00000020: 402c e5bb 0143 91bc 8742 a8bd 734f 87bc
00000030: 169c 353d 0cdf e23c b829 353b 3f22 43bd
00000040: 3080 8f39 9560 b23c bfe0 1cbd cd33 3abc
00000050: f479 19bd 5048 c3bc 5453 083d e8c4 bb3c
00000060: 0584 7ebc c3da 25bd 96bb bebc 82eb a2bd
00000070: d468 0cbd 502f f0bd 35a6 e0bd dd35 d8bc
00000080: 1800 12bd fe43 3fbd f55a b4bc 118e 34bd
00000090: a743 11bd 441b a7bd 0048 85bd e6f3 ccbd
000000a0: fd0c 90bc 14af c7bd e8bc a2bd c521 14bd
000000b0: 7ad6 15bd d3e9 00be 290e c3bd ed04 a0bc
000000c0: a9fe cfbc 070b 27bd 84c6 a7bd e53b 08bd
000000d0: 62fb c9bd f1aa d13d 94ac 1cbd 07fb e0bc
000000e0: af32 aabc 126f 42bc 3bac edbc 56e5 bf3c
000000f0: 9a64 07bd 757a a1bc a01b 453c 8f6b 61bd
00000100: acc9 953c 0b71 23bd b1f0 21bd fb45 c5bc
00000110: 840d 7bbc 957f 17bd deaf 4bbc 9676 acbb
00000120: 9833 82bd 09e4 4cbd 3c57 e6bb ae2c 96bd
00000130: 9f33 11bd 09bb 36bd c386 cb3d e5a7 2f3d
00000140: c575 87bd 6201 c3ba 726c 04bd 0150 3abc
00000150: 8102 87bd 7585 e5bb 7bc3 29bd 063d fb3b
00000160: e8c0 c5bc 46eb debc 6d56 75bc 5ed5 b8bb
00000170: a784 d8bc 5725 1c3d 8ba4 8abd 677d e7bc
00000180: 65b5 f5bc a774 33bd eb62 c9bd be52 59bd
00000190: 6d6d a4bd f80f 4ebd d316 1d3d 5834 cdbc
000001a0: d13c 16bc 40f6 9ebc 0862 e0bc 0592 30bd
000001b0: 9696 2bbd 282a 37bd dd69 3cbd 8d21 dbbc
000001c0: 0dc3 37bd e5cf 3c3c d937 b0bc 6b59 fcbc
000001d0: bf99 a4bd 648b 8abd f8dc f5bb e058 153c
000001e0: 0930 8bbd cc19 be3b b653 2fbd a7cc 32bd
000001f0: db14 2cbd d19b a6bd b4fb 98bc 98e8 1dbc

model.3.weight f4 [1, 128]
0.06547094 0.34676442 0.04975329 0.07812041 0.4182375 -0.015594327 0.046411924 0.0014839632
-0.021393294 0.011988317 -0.008082311 0.033550743 0.40801418 0.35077354 -0.025375143 -0.039455153
0.40043855 0.3919344 0.040068503 0.015481365 -0.028524024 -0.0469457 0.36368766 0.33345446
0.052732214 -0.06982288 0.0036350153 0.047108814 0.001015296 0.0020321985 -0.021445846 0.023014806
0.014289531 -0.05627311 0.002852604 0.3496396 0.0016210526 0.0139376335 -0.0020544205 -0.038760208
0.055617593 0.052887205 0.0013870642 -0.044489294 -0.013564825 0.08818387 -0.086781055 -0.010499444
0.053598218 -0.017892068 0.04626138 0.0001315087 -0.023862934 -0.49583253 -0.058824483 0.03985572
-0.056383707 0.37033525 -0.017096838 0.36470708 -0.062137835 0.37583643 0.33936974 -0.01701089
0.4334796 -0.019106997 -0.02394629 0.046374336 0.05496462 0.03236898 0.018758873 -0.013670347
0.012740286 -0.043280303 0.48001903 -0.004912739 -0.019429032 0.04808337 -0.40484798 0.44531578
-0.011050284 0.3687202 0.034093525 0.0034784952 0.017403102 -0.029340852 0.04870051 -0.01755281
0.3833498 -0.008726064 -0.024927275 -0.012537918 0.020203238 0.3983658 0.017778838 0.014038893
0.058106363 -0.028028898 -0.043587267 0.029379176 -0.036715694 0.047590893 0.37697384 0.04241618
-0.08229545 0.45235384 0.02964 0.00011759267 0.010254189 -0.006282271 -0.004941505 0.048921015
0.02389232 -0.017281557 0.02743547 -0.02030638 0.00017304724 -0.02084677 -0.01433781 0.36391747
-0.021401241 0.40031648 0.003625935 -0.0037871469 0.02440547 0.0028504005 0.36029693 -0.015246719
00000000: a115 863d 1b8b b13e 1bca 4b3d 98fd 9f3d
00000010: 3a23 d63e 597f 7fbc 6e1a 3e3d 8b81 c23a
00000020: fd40 afbc a56a 443c ab6b 04bc 816c 093d
00000030: 3ce7 d03e 9798 b33e 88df cfbc ba9b 21bd
00000040: 4806 cd3e a0ab c83e df1e 243d 8da5 7d3c
00000050: 37ab e9bc 224a 40bd 4535 ba3e 8bba aa3e
00000060: bcfd 573d 4cff 8ebd 7039 6e3b 2cf5 403d
00000070: ae13 853a a22e 053b 33af afbc 8c89 bc3c
00000080: a31e 6a3c a27e 66bd c1f2 3a3b f603 b33e
00000090: 8079 d43a ac5a 643c 75a3 06bb 06c3 1ebd
000000a0: 46cf 633d 41a0 583d 27ce b53a 683a 36bd
000000b0: 003f 5ebc bf99 b43d 44ba b1bd dc05 2cbc
000000c0: ce89 5b3d 6392 92bc 937c 3d3d 99e5 0939
000000d0: 337c c3bc c3dd fdbe f1f1 70bd c03f 233d
000000e0: 9af2 66bd 959c bd3e ab0e 8cbc e3ba ba3e
000000f0: 3e84 7ebd a26d c03e dfc1 ad3e 6c5a 8bbc
00000100: 0af1 dd3e 4786 9cbc 032b c4bc 04f3 3d3d
00000110: 9522 613d 5695 043d 35ac 993c 97f9 5fbc
00000120: a2bc 503c b046 31bd 0ec5 f53e 0bfb a0bb
00000130: a229 9fbc 11f3 443d 3c48 cfbe 6e00 e43e
00000140: 400c 35bc e5c8 bc3e a7a5 0b3d 77f7 633b
00000150: f390 8e3c 3a5c f0bc 307a 473d e9ca 8fbc
00000160: 6d46 c43e c4f7 0ebc 4934 ccbc d76b 4dbc
00000170: 4381 a53c 9af6 cb3e eda4 913c 6303 663c
00000180: f000 6e3d dc9c e5bc 9088 32bd 99ac f03c
00000190: 3263 16bd abee 423d b702 c13e 97bc 2d3d
000001a0: 848a a8bd ec9a e73e 96cf f23c 169c f638
000001b0: 3001 283c 82db cdbb 59ec a1bb 6761 483d
000001c0: d4b9 c33c 0d92 8dbc 5ac0 e03c 9159 a6bc
000001d0: 0474 3539 d8c6 aabc 22e9 6abc 6453 ba3e
000001e0: a851 afbc 48f6 cc3e 18a1 6d3b c831 78bb
000001f0: fbed c73c c9cd 3a3b d778 b83e 60cd 79bc
