src/text_based_split/ckpts/model_best_acc.pt (torch, 200227 bytes, 3 tensors)

model.0.weight f4 [128, 384]
0	0xbd35009e	-0.04419004
1	0xbb9953cc	-0.004679179
2	0xbcb739fc	-0.022366516
3	0x3d2eeb33	0.042704772
4	0xbcf1cd4d	-0.02951684
5	0x3c0cbf41	0.00859052
6	0xbcdb0521	-0.026735844
7	0x3cd7a604	0.02632428
8	0x3d21b563	0.039479624
9	0xb9e4bb0e	-0.00043626915
10	0xbcb7d1d0	-0.022438914
11	0x3c3ea967	0.011637068
12	0x3cc9f704	0.024653919
13	0x3c72ed1a	0.014827037
14	0x3bc2b6d0	0.005942203
15	0x3d4edefa	0.050505616
16	0xbcb007ca	-0.02148809
17	0x3cf6e1c0	0.030136943
18	0xbcd19e9b	-0.025588324
19	0xbc8af180	-0.01696086
20	0x3c94cb0f	0.018163232
21	0x3c969ab4	0.018384315
22	0x3c415a66	0.011801338
23	0x3cdd64c8	0.027025595
24	0xbc578e49	-0.013156482
25	0xbd488792	-0.048957415
26	0x3cfdc3f4	0.030977227
27	0x3d15bf17	0.03655919
28	0x3d3ec21b	0.046571832
29	0x3c4a2138	0.0123370215
30	0x3d12618c	0.03573756
31	0x3ca7b4ae	0.020471897
32	0xbc0dd12a	-0.008655826
33	0x3cb1a7db	0.021686485
34	0xbcc9471c	-0.02457004
35	0x3c994177	0.018707974
36	0xbc50936f	-0.012730463
37	0xbca5988b	-0.02021434
38	0xb9a6466b	-0.00031714453
39	0xbd17a5cb	-0.037023347
40	0xbc1dc92f	-0.009630485
41	0x3b6cfa1b	0.0036159817
42	0x3cae0503	0.021242624
43	0xbd3efa8e	-0.046625666
44	0xbb5f0b58	-0.003403386
45	0xbc65c1ca	-0.014023254
46	0xbbcf74b7	-0.006331052
47	0xbc82397b	-0.01589655
48	0x3d278ef6	0.040907823
49	0xbaa5acb6	-0.0012639973
50	0xbc40c9ee	-0.011766894
51	0xbccccd50	-0.025000244
52	0x3ca1e203	0.019761091
53	0xbcacb6af	-0.021083204
54	0x3d3a55da	0.04549203
55	0x3b8d27b1	0.00430771
56	0xbbe72c98	-0.0070548765
57	0x3bb71146	0.005586776
58	0xbd0285ad	-0.031865764
59	0xbb0dbfdd	-0.0021629252
60	0x3d4a6cef	0.049420293
61	0x3c4073c3	0.01174635
62	0x3d2e262b	0.04251687
63	0xbbb46421	-0.0055051004
64	0xbce5b573	-0.028040623
65	0x3cf77fe8	0.030212358
66	0x3d4ba635	0.049719054
67	0x3d47583e	0.04866814
68	0xbd4b9ecc	-0.049711987
69	0xbc27fa9b	-0.01025262
70	0xbcaf05da	-0.021365095
71	0x3a92292f	0.001115119
72	0xbc2f1962	-0.010687204
73	0x3c0da731	0.008645819
74	0xbc7d95cf	-0.015477612
75	0xbd329ee7	-0.043608572
76	0x3d3fdd4e	0.046841912
77	0x3c9b647b	0.018968811
78	0xbd0b1d9b	-0.03396378
79	0xbd2b2ba8	-0.04178968
80	0x3c83ee99	0.016104983
81	0x3cf0c35a	0.029390026
82	0xbc8d242b	-0.01722916
83	0x3bc01be3	0.0058626994
84	0x3cb65325	0.022256443
85	0x3c8a5f9e	0.016891297
86	0x3d224ff4	0.03962703
87	0x3b003b73	0.0019566684
88	0xbbf6657a	-0.007519421
89	0xbc9a3c76	-0.018827658
90	0x3c2bbc1b	0.01048186
91	0xbd3013f7	-0.04298779
92	0x3c7e3a6f	0.015516861
93	0xbc7d5b81	-0.015463711
94	0xbd4e33f6	-0.050342523
95	0x3bfb6e51	0.007673063
96	0x3d01d31e	0.031695478
97	0xbca4b74e	-0.020106938
98	0xbd45d2b6	-0.048296653
99	0xbd158cea	-0.03651134
100	0xbcbddcd8	-0.023176596
101	0x3d4ed5bc	0.0504968
102	0x3d02fdd4	0.03198035
103	0xbcadb8af	-0.021206228
104	0x3c1a0d87	0.009402639
105	0x3d1d559d	0.038411725
106	0xbc923346	-0.017846715
107	0x3b7d4aff	0.0038649437
108	0xbccbe700	-0.024890423
109	0xba0fcfd5	-0.00054859865
110	0xbcd8d28d	-0.026467586
111	0xbd30023f	-0.042970892
112	0x3d1d423c	0.038393244
113	0x3cc2f764	0.023799606
114	0x3c87c418	0.016572997
115	0xb95d4545	-0.00021102007
116	0xbc43fcd9	-0.011962139
117	0x3b4a0d78	0.0030830782
118	0xbc81822a	-0.015809137
119	0xbcbb48e3	-0.022861904
120	0xbce6c7c5	-0.02817143
121	0x3d1443a8	0.036197335
122	0x3babc2f2	0.005241745
123	0x3cafb1af	0.02144703
124	0xbd0c54d5	-0.03426059
125	0xbcfbba0c	-0.030728363
126	0x3d325778	0.043540448
127	0x3d420146	0.047364496
128	0xbc2bdc62	-0.010489555
129	0xbd0c804c	-0.03430204
130	0xbbcf5b26	-0.0063280044
131	0x3bbdbe4d	0.005790508
132	0x3d290467	0.041263964
133	0xba689d24	-0.00088735134
134	0xbce1ea34	-0.027577497
135	0xbab7e86b	-0.0014031058
136	0xbc541f88	-0.012946971
137	0x3d3119e2	0.043237574
138	0xbbb5ddb5	-0.005550111
139	0x3c732ff4	0.014842976
140	0xbcee8727	-0.02911718
141	0xbc16dc5e	-0.009207813
142	0x3c09e4e0	0.008416384
143	0xbcca77cb	-0.024715325
144	0xbc2db6ab	-0.0106026335
145	0x3c164628	0.009172
146	0xba56b82f	-0.00081908976
147	0xbcce63e1	-0.02519411
148	0x3a09ce5e	0.00052568864
149	0x3d399f46	0.04531791
150	0x3d3392cd	0.043841172
151	0xbcf0b266	-0.029381942
152	0x3ce43a72	0.0278599
153	0xbd44514e	-0.0479291
154	0xbd1ff8aa	-0.039055504
155	0xbcc24afc	-0.023717396
156	0x3bad771b	0.0052937395
157	0x3c8390c4	0.01606024
158	0x3cb7b15b	0.022423437
159	0x3bd0c01d	0.006370558
160	0xbd401239	-0.04689238
161	0xbc20e2c5	-0.009819691
162	0x3cca8dbc	0.024725787
163	0xbd13a103	-0.036042225
164	0xbd071fe0	-0.032989383
165	0xbb8262bd	-0.0039790557
166	0xbcd4940f	-0.025949506
167	0xbd215c8a	-0.039394893
168	0x3d08e076	0.033417188
169	0x3c0dad23	0.008647236
170	0x3d36f59d	0.04466783
171	0xbcae1847	-0.02125181
172	0xbd1c2ef2	-0.038130708
173	0xbc253455	-0.010083278
174	0x3c961f90	0.018325597
175	0x3ca169f0	0.019703835
176	0x3d471feb	0.048614424
177	0x3c68a469	0.014199355
178	0xbbd49600	-0.006487608
179	0xbcfacd5d	-0.030615503
180	0xbd4b94b3	-0.049702358
181	0xbcf0428d	-0.029328609
182	0xbce8d906	-0.028423797
183	0xbd05becf	-0.032652672
184	0xbbe9ce0d	-0.007135159
185	0x3d4677eb	0.048454206
186	0x3cd68bdd	0.026189739
187	0xbd0e32b9	-0.03471634
188	0x3d30d2f3	0.043169927
189	0x3c2546c1	0.01008767
190	0x3cb1b843	0.021694308
191	0xbc79c1f6	-0.015243998
192	0xbd4db360	-0.050219893
193	0x3d21c1cb	0.039491456
194	0x3af428a7	0.0018627838
195	0x3cd41233	0.025887584
196	0x3cee7cb4	0.029112197
197	0xbd32669e	-0.043554895
198	0x3d0d1d87	0.034451988
199	0xbcee2cd7	-0.029074116
200	0x3d2b1e67	0.04177704
201	0xbd08637d	-0.033298004
202	0xbd1d062a	-0.038335957
203	0xbc8c3a96	-0.01711778
204	0xbd102588	-0.035192043
205	0xba83b91b	-0.0010049673
206	0x3d3e36ec	0.046439096
207	0xbd0bece5	-0.034161467
208	0x3d46a9a7	0.048501637
209	0xbd2beb0d	-0.04197221
210	0x3d1f8e74	0.038954213
211	0xbcbf1147	-0.023323668
212	0x3cde75ed	0.02715584
213	0x3d50a403	0.050937664
214	0x3c5ee434	0.013604213
215	0xbb7aff6d	-0.0038299218
216	0xbc64f773	-0.013975012
217	0x3cb463ed	0.022020305
218	0x3be76254	0.007061282
219	0xbcf89bb4	-0.030347683
220	0x3d0376ee	0.032095842
221	0xbcf913c8	-0.03040494
222	0x3d4602a9	0.04834238
223	0x3c8aa729	0.016925411
224	0xbc8dd627	-0.01731403
225	0xbcf4c4a1	-0.029878916
226	0xbcbd6002	-0.02311707
227	0x3a47ae67	0.00076172355
228	0xbd1dc3d4	-0.038516834
229	0xbc4f3866	-0.012647724
230	0xbd42deb3	-0.047575664
231	0x3b5424a9	0.0032370484
232	0x3cdaa4d2	0.02668992
233	0xbc97ef69	-0.018546777
234	0xbd4e8f40	-0.050429583
235	0xbc2d42fb	-0.010575051
236	0x3ce4a325	0.027909825
237	0xbd43c6b5	-0.047796924
238	0x3cf3e882	0.029773954
239	0xbd114af4	-0.03547187
240	0xbd1df56e	-0.038564138
241	0xbc49af65	-0.012309884
242	0xbd1eaed0	-0.038740933
243	0x3cbe300d	0.023216272
244	0xbd01f4ac	-0.031727478
245	0xbcc8c8cc	-0.02450981
246	0x3cee9002	0.029121403
247	0xbc034f72	-0.008014547
248	0x3ba2f775	0.004973347
249	0x3ca885fc	0.020571701
250	0xbd14c655	-0.036321957
251	0xbc8a9155	-0.016915003
252	0x3cf67715	0.03008608
253	0xbd192697	-0.037390318
254	0xbccc9010	-0.024971038
255	0xbcb1a994	-0.021687306

model.0.bias f4 [128]
0	0xbd2e1dc5	-0.04250886
1	0x3d7576d4	0.059927776
2	0xbd336502	-0.0437975
3	0xbc6d18a9	-0.0144712115
4	0xbc1e58c6	-0.00966472
5	0xbcf65e6a	-0.030074317
6	0xbd779db8	-0.060453147
7	0xbd9e5eb6	-0.077329084
8	0xbbe528eb	-0.006993403
9	0xbc91424a	-0.017731804
10	0xbda8425d	-0.08215783
11	0xbc874ebc	-0.016517036
12	0x3d3d9e2a	0.046293415
13	0x3d2ee823	0.04270185
14	0x3b3531af	0.0027648022
15	0xbd4321c5	-0.047639627
16	0x3c307f42	0.010772528
17	0x3d48696d	0.048928667
18	0xbd1ce0bf	-0.038300272
19	0xbc3a325e	-0.011364548
20	0xbd197972	-0.037469335
21	0xbcc34850	-0.023838192
22	0x3d3e0f6e	0.046401434
23	0x3d4ad24d	0.049516965
24	0xbc7e8296	-0.015534064
25	0xbd25dac3	-0.04049183
26	0xbcbeba9b	-0.02328234
27	0xbda2daec	-0.07951912
28	0xbd0c687b	-0.034279328
29	0xbdf0269a	-0.11726113
30	0xbde0a60b	-0.1096917
31	0xbcd83526	-0.02639253
32	0xbd120018	-0.03564462
33	0xbd3f43fe	-0.0466957
34	0xbcb45af5	-0.022016028
35	0xbc90f60d	-0.017695451
36	0xbd11434e	-0.035464577
37	0xbda71b1a	-0.08159466
38	0xbd8547d6	-0.06507842
39	0xbdccf3b2	-0.10007419
40	0xbc900c46	-0.017583977
41	0xbdc7aeea	-0.09750159
42	0xbda2bcbe	-0.07946156
43	0xbd1421c5	-0.036165018
44	0xbd15d621	-0.036581162
45	0xbdfd20c4	-0.12359765
46	0xbdc2d2b0	-0.09512842
47	0xbca00436	-0.019533258
48	0xbccffdf2	-0.025389645
49	0xbd270aa1	-0.04078162
50	0xbda7c65a	-0.081921294
51	0xbd083be5	-0.033260245
52	0xbdc9fb38	-0.09862369
53	0x3da7f4e1	0.08201004
54	0xbd1cac94	-0.03825052
55	0xbce0fa50	-0.027463108
56	0xbcaa32af	-0.020776121
57	0x3cc2d362	0.023782436
58	0xbcedac3b	-0.02901279
59	0x3d27d6fb	0.040976506
60	0xbd07649a	-0.033054926
61	0xbb149687	-0.002267273
62	0x3ce16e94	0.027518548
63	0xbd616b07	-0.05503371
64	0x3c9c625a	0.019089866
65	0xbd236f5b	-0.03990112
66	0xbd21f058	-0.03953585
67	0xbcc54544	-0.02408088
68	0xbc7b0c15	-0.015322705
69	0xbd177f3c	-0.036986575
70	0xbc4bae6f	-0.012431725
71	0xbbac72ba	-0.0052627
72	0xbd823316	-0.063574
73	0xbd4ce409	-0.05002216
74	0x3ae82738	0.0017711883
75	0xbd962c84	-0.073327094
76	0xbd11332e	-0.0354492
77	0xbd36bab0	-0.044611633
78	0x3e162d64	0.14665753
79	0x3d4a7848	0.049431115
80	0xbd877596	-0.066142246
81	0x3c133e75	0.008987059
82	0xbd046bf8	-0.03232953
83	0xbc3a4e5e	-0.011371223
84	0xbd86f402	-0.065895095
85	0xbbe58139	-0.00700393
86	0xbd29c322	-0.04144586
87	0x3bfb418e	0.007667727
88	0xbc596e7d	-0.013270971
89	0xbcdeea8f	-0.027211456
90	0xbc7554fe	-0.014973877
91	0xbbb8d0fb	-0.005640147
92	0xbcd884a7	-0.026430441
93	0x3d1e80a6	0.038696907
94	0xbd8aa461	-0.06769634
95	0xbce77d67	-0.028258039
96	0xbcf5b565	-0.029993722
97	0xbd3374a7	-0.04381242
98	0xbdc962c1	-0.09833289
99	0xbd595265	-0.053057093
100	0xbda46d25	-0.0802863
101	0xbd4e0ff8	-0.050308198
102	0x3d5e5630	0.054281414
103	0xbccd33a1	-0.025049033
104	0xbc163cd1	-0.009169773
105	0xbb9e1fba	-0.0048255594
106	0xbce06151	-0.027390154
107	0xbd3091ac	-0.043107674
108	0xbd2b963d	-0.041891325
109	0xbd3729cf	-0.044717606
110	0xbd3c6984	-0.045999065
111	0xbcdb1618	-0.026743934
112	0xbd37c30d	-0.04486375
113	0x3c3cd1a2	0.01152459
114	0xbcb037d9	-0.021511005
115	0xbcfc582b	-0.03080376
116	0xbda49985	-0.08037094
117	0xbd8a8b3a	-0.067648366
118	0xbbf5dcf8	-0.007503148
119	0xbb54e094	-0.0032482492
120	0xbd8b2fdf	-0.0679624
121	0x3abdc94d	0.0014479548
122	0xbd2f535d	-0.04280411
123	0xbd32cc4e	-0.04365187
124	0xbd2c14db	-0.042012077
125	0xbda69ba7	-0.08135157
126	0xbbcf4cdf	-0.0063263024
127	0xbc1de729	-0.009637632

model.3.weight f4 [1, 128]
0	0x3d8615a1	0.06547094
1	0x3e8c1387	0.27358648
2	0x3d4bca1b	0.04975329
3	0x3d9ffbeb	0.078117214
4	0x3e8d5ea3	0.27611265
5	0xbc7f7dbf	-0.015593945
6	0x3d3e1a15	0.046411593
7	0x3ac28d0c	0.0014843061
8	0xbcaf402b	-0.021392902
9	0x3c446936	0.011987975
10	0xbc046d1a	-0.008082652
11	0x3d096c28	0.03355041
12	0x3ea42506	0.32059497
13	0x3e8b3d51	0.27195218
14	0xbccfdec6	-0.025374781
15	0xbd219b2f	-0.039454635
16	0x3e97f098	0.29675746
17	0x3e9f74d9	0.31143835
18	0x3d241edf	0.040068503
19	0x3c7da41e	0.015481023
20	0xbce9aa28	-0.02852352
21	0xbd404a22	-0.0469457
22	0x3e9bf739	0.30462053
23	0x3e902b73	0.2815815
24	0x3d57fd63	0.052731883
25	0xbd8eff4c	-0.06982288
26	0x3b6e4172	0.0036354926
27	0x3d4124e2	0.047154315
28	0x3a85082c	0.001014953
29	0x3b0417cd	0.0020155788
30	0xbcafafea	-0.021446187
31	0x3cbc88d5	0.023014465
32	0x3c6a1ea3	0.014289531
33	0xbd667ea2	-0.05627311
34	0x3b3af2c1	0.002852604
35	0x3e8c85e4	0.274459
36	0x3ad46dfe	0.0016207097
37	0x3c64593d	0.013937292
38	0xbb06a933	-0.0020547628
39	0xbd1ec298	-0.038759798
40	0x3d63ceed	0.05561726
41	0x3d589fe8	0.052886873
42	0x3ab5c2a7	0.0013867215
43	0xbd363a68	-0.044489294
44	0xbc5e406f	-0.013565167
45	0x3dafe9ff	0.08589553
46	0xbdb143ea	-0.08655532
47	0xbc2c074b	-0.010499786
48	0x3d5b8975	0.053597886
49	0xbc929182	-0.01789165
50	0x3d3d7c3a	0.04626105
51	0x3909e599	0.0001315087
52	0xbcc37cea	-0.023863275
53	0xbec19f5f	-0.37816903
54	0xbd70f1f1	-0.058824483
55	0x3d233f67	0.039855387
56	0xbd66f29a	-0.056383707
57	0x3e7c6e27	0.24651395
58	0xbc8c0eab	-0.017096838
59	0x3e9540c7	0.29150984
60	0xbd7e843e	-0.062137835
61	0x3e8efdb9	0.2792795
62	0x3e9214ab	0.28531393
63	0xbc8b5957	-0.017010374
64	0x3eb6dda8	0.35715985
65	0xbc9c8a4a	-0.01910891
66	0xbcc42bba	-0.023946632
67	0x3d3df2ab	0.046374004
68	0x3d61223c	0.05496429
69	0x3d0494fd	0.03236865
70	0x3c99ab7e	0.018758532
71	0xbc5ff710	-0.013669744
72	0x3c50b848	0.012739249
73	0xbd3146b0	-0.043280303
74	0x3ec008d1	0.37506726
75	0xbba0fde7	-0.00491308
76	0xbc9f289a	-0.01942854
77	0x3d44f2b8	0.048083037
78	0xbeb8b4b3	-0.36075363
79	0x3eb11461	0.3458586
80	0xbc350aaa	-0.011049906
81	0x3e8d3510	0.27579546
82	0x3d0ba544	0.034093156
83	0x3b6400e9	0.0034790582
84	0x3c8e806e	0.017395224
85	0xbcf05b1a	-0.029340316
86	0x3d4779d7	0.04870018
87	0xbc8fc9a1	-0.017552199
88	0x3e9695ba	0.29411107
89	0xbc0ef933	-0.008726406
90	0xbccc3500	-0.024927616
91	0xbc4d6940	-0.012537301
92	0x3ca58143	0.020203238
93	0x3ea3275e	0.31865972
94	0x3c91a436	0.017778497
95	0x3c660363	0.014038893
96	0x3d6e00f0	0.058106363
97	0xbce59cdc	-0.028028898
98	0xbd328838	-0.04358694
99	0x3cf0abe2	0.029378835
100	0xbd16629c	-0.036715135
101	0x3d42eeab	0.047590893
102	0x3e8dd102	0.27698523
103	0x3d2dbc3e	0.04241585
104	0xbda88a84	-0.08229545
105	0x3ead6fa9	0.33874252
106	0x3cf2cedf	0.02963966
107	0x38f5e3b3	0.00011724923
108	0x3c27ff24	0.010253701
109	0xbbcdde5e	-0.0062826118
110	0xbba1ef35	-0.004941846
111	0x3d48621c	0.04892169
112	0x3cc3b9d4	0.02389232
113	0xbc8d9130	-0.017281145
114	0x3ce0c05a	0.02743547
115	0xbca65c4f	-0.020307688
116	0x3935f478	0.00017352577
117	0xbcaac78f	-0.02084711
118	0xbc6ae922	-0.01433781
119	0x3e96753d	0.2938632
120	0xbcaf525f	-0.021401582
121	0x3e9c20b4	0.304937
122	0x3b6d9b5a	0.0036255927
123	0xbb783786	-0.0037874891
124	0x3cc7edfb	0.02440547
125	0x3b3ac80b	0.0028500583
126	0x3e922880	0.28546524
127	0xbc79cecf	-0.015247061
