src/manuel/ckpts/model_best_acc.pt (torch, 2787 bytes, 3 tensors)

model.0.weight f4 [5, 11]
00000000: 88d7 77be 4d85 a03d cba3 63be 5295 2ebe
00000010: 5be8 903e 82d2 243e 957d 5dbe 3893 99be
00000020: d9a3 0d3e b2c5 6ebc e60b 0dbd 3d09 66be
00000030: 6d48 21be 0e82 193e d8cd 72bd 0bdd 5a3e
00000040: da92 5a3d 19d9 56be a263 533d cfde d73c
00000050: 6c9d 673e 9a02 f93d eb2f 67be 9d3b 263c
00000060: 0bbb 023d cef7 d2bd 9427 033e aa13 99be
00000070: b6e0 8a3e e852 943c 5dbc 85be efa8 0b3e
00000080: f0be 76be 05d6 1a3e 8906 5dbe ca0a 4d3e
00000090: 68cf 033e 1167 f13d 9a1c 91be 01c0 08be
000000a0: 9ca6 ddbd fd18 b33d ba45 37bc 9f3a 96be
000000b0: 6290 2abd b1c1 9d3d 76a6 d5bc 6e74 4d3d
000000c0: d8c1 91be fc28 8e3e c27e 273e d69e f5bd
000000d0: 169a 673e 8fcb 78be 3a87 983d
-0.24203312 0.07837925 -0.22230451 -0.17049149 0.28302273 0.16095927 -0.21629937 -0.29995131
0.13832034 -0.014573501 -0.034435175 -0.22464462 -0.15750284 0.14991018 -0.05927834 0.21373384
0.053362705 -0.20981254 0.05160869 0.02635136 0.22618645 0.12158699 -0.22576873 0.010146049
0.03191666 -0.10301171 0.12808067 -0.29897815 0.27124566 0.018105939 -0.26120272 0.13638662
-0.24096274 0.15120704 -0.21584524 0.20023647 0.12872088 0.117872365 -0.28342134 -0.13354494
-0.10822794 0.087450005 -0.011186058 -0.293416 -0.0416416 0.07702959 -0.026080351 0.050159864
-0.28468204 0.27765644 0.16356948 -0.11993186 0.22617373 -0.24296401 0.074476674

model.0.bias f4 [5]
00000000: af62 083e 2b89 96be b914 2dbe 4d1f 9cbd
00000010: ec3c 86be
0.13318895 -0.29401526 -0.16902436 -0.07623158 -0.26218355

model.3.weight f4 [1, 5]
00000000: 31c5 1b3e f793 9cbe 9fff 4c3c 143e ec3d
00000010: c876 e33e
0.15211941 -0.30581638 0.012512117 0.11535278 0.4442656
