src/manuel/ckpts/model_last.pt (torch, 2747 bytes, 3 tensors)

model.0.weight f4 [5, 11]
00000000: 68b5 28be 8855 3f3e cba3 63be 772e 90bd
00000010: 5be8 903e 8950 363e 957d 5dbe 3893 99be
00000020: 2468 2f3e f969 243b 96a3 e1bc 3d09 66be
00000030: 6d48 21be 0e82 193e d8cd 72bd 0bdd 5a3e
00000040: da92 5a3d 19d9 56be a263 533d cfde d73c
00000050: 6c9d 673e 9a02 f93d eb2f 67be 9d3b 263c
00000060: 0bbb 023d cef7 d2bd 9427 033e aa13 99be
00000070: b6e0 8a3e e852 943c 5dbc 85be efa8 0b3e
00000080: f0be 76be 3f2b b03d 44a7 0dbe 955f b43e
00000090: 90b0 763d 1167 f13d 9a1c 91be 01c0 08be
000000a0: f01c bdbb fe71 cb3d ba45 37bc 3231 2dbe
000000b0: 50e5 013d f80c 703e e59a 2cbc 7f35 6a3d
000000c0: d8c1 91be 6725 b93e c27e 273e 5e36 80bd
000000d0: f1ac 863e c8d2 22be ed8f d73d
-0.16475451 0.18684971 -0.22230451 -0.070401125 0.28302273 0.17804159 -0.21629937 -0.29995131
0.1712957 0.0025087579 -0.027543824 -0.22464462 -0.15750284 0.14991018 -0.05927834 0.21373384
0.053362705 -0.20981254 0.05160869 0.02635136 0.22618645 0.12158699 -0.22576873 0.010146049
0.03191666 -0.10301171 0.12808067 -0.29897815 0.27124566 0.018105939 -0.26120272 0.13638662
-0.24096274 0.086019985 -0.13833338 0.35229173 0.060226977 0.117872365 -0.28342134 -0.13354494
-0.005771272 0.09933852 -0.011186058 -0.16913298 0.03171283 0.23442447 -0.010534977 0.057179924
-0.28468204 0.36161348 0.16356948 -0.0626037 0.2630382 -0.15900719 0.105254985

model.0.bias f4 [5]
00000000: d104 853b 2b89 96be b914 2dbe d6e6 11be
00000010: 5da9 41be
0.004059412 -0.29401526 -0.16902436 -0.14248213 -0.18912263

model.3.weight f4 [1, 5]
00000000: 9f6c 4a3d f793 9cbe 9fff 4c3c 0859 d43d
00000010: 50cc 0c3f
0.049419995 -0.30581638 0.012512117 0.10368544 0.54999256
